naive_classifier_model.pkl_04.npy (npy, 1032 bytes, 1 tensors)

array f8 [1, 119]
0	0xbfcd8d0d04cf33a0	-0.23086703047593193
1	0x3fdfaadf7d19453f	0.494804260412895
2	0x0000000000000000	0.0
3	0x3fc4d90222fd7793	0.16287256916524182
4	0xbfd329714709d973	-0.2994044488654232
5	0x3fe1ebf75e88248e	0.5600544782947894
6	0x3fcdd0bb0be590f4	0.23293245392699868
7	0x3fdaacad8fb3b562	0.41678942712208855
8	0xbfd8a0b756b15115	-0.3848093363387915
9	0x3fdc37195a876a3d	0.44086297836989613
10	0x3fcf7aba078de35c	0.24593282097682845
11	0x3fdf7aba078de35c	0.4918656419536569
12	0x3fcf7aba078de35e	0.2459328209768285
13	0x3fe3880137151f88	0.6103521419363327
14	0x3fdabb39f21f155e	0.41767738957090284
15	0x3fe3880137151f88	0.6103521419363327
16	0xbfca366186edf661	-0.20478457535130004
17	0xbfc0beddb4f67e77	-0.13082476936414242
18	0xbfcd2cfe863d6fa9	-0.22793561510741014
19	0x3fb1b738d7570340	0.06920199639627089
20	0xbfba72771c2ff3c2	-0.10330910146872355
21	0xbfe8c2351ca4b617	-0.7737069663468813
22	0xbfe26bb2b040a994	-0.5756467287476874
23	0x0000000000000000	0.0
24	0xbfc09c4bfb7b8a82	-0.12976979998991928
25	0xbfd6bd6cf0abc0a0	-0.3553116178800426
26	0x3fdc37195a876a3d	0.44086297836989613
27	0xbfe8c2351ca4b617	-0.7737069663468813
28	0xbfd190a2ea21eee0	-0.27445290436274483
29	0xbfc866121aa63111	-0.19061495114545626
30	0xbfc17e19adb7b3c4	-0.13666077596954385
31	0xbfd05d876f682a85	-0.25570855979518853
32	0xbfd5d7199ae91782	-0.34125366332988716
33	0xbfc372808c68e661	-0.15193182807870456
34	0x3fc6f7fd546a729d	0.17944304105630673
35	0xbfc3ca92e18c918f	-0.15461956036700683
36	0xbf9118d95a69dce9	-0.01669635404911399
37	0xbfcd1f76adac2ad4	-0.22752269249061519
38	0xbfe12712a8e32ea7	-0.536019639833701
39	0xbfdd9c4b6c1e3508	-0.46266446646116366
40	0xbfc372808c68e661	-0.15193182807870456
41	0x3fd85260c5ea9c2e	0.38002795532014744
42	0xbfd84469db170bc2	-0.3791756286192901
43	0xbfc0beddb4f67e77	-0.13082476936414242
44	0xbfde142b0c8b76e8	-0.4699809668071411
45	0xbfd0378707dcb330	-0.2533891274240885
46	0x3fe84b059eb485fd	0.7591579532347051
47	0x3fb4ec2c4c95f538	0.08172871465463494
48	0xbfc0beddb4f67e77	-0.13082476936414242
49	0x3fe515c1d3f34537	0.6589059009221846
50	0xbfd84469db170bc2	-0.3791756286192901
51	0xbfe1ff5ba2e76d2f	-0.56242162530126
52	0xbfc90ed1f3c2859d	-0.19576477434479225
53	0xbfe1b5bfd0d8686a	-0.5534361914644823
54	0x3fc1abfd9471a4c6	0.13806123493421846
55	0xbfd4667bcfdb340b	-0.31875510500395937
56	0xbfc357c78dae3ce9	-0.15111631792067406
57	0x0000000000000000	0.0
58	0xbfde142b0c8b76e8	-0.4699809668071411
59	0x3fe515c1d3f34537	0.6589059009221846
60	0x3fb4da617738bef4	0.08145722542462491
61	0x3fdc37195a876a3d	0.44086297836989613
62	0xbfe4205661e00bc3	-0.6289474403023337
63	0x3ff87b9a2fbce9a1	1.530176340557411
64	0xbfeb3cbe47e75275	-0.851164951740954
65	0x3fc1238e146ac701	0.13389755246094384
66	0xbfc97cecb7fdba5a	-0.199124898757378
67	0xbff63bc57741c2e9	-1.3895926149818314
68	0xbfe73991951546cc	-0.725777426889374
69	0x0000000000000000	0.0
70	0xbfe26402a9c0d130	-0.574708301114276
71	0x3fd32e7e545d370d	0.2997127364986774
72	0xbff38168e8620d41	-1.2190941884480966
73	0x3fef5778e9a00d93	0.9794277728073432
74	0x3fdc37195a876a3d	0.44086297836989613
75	0xbfe07c6844f1f817	-0.5151864382348802
76	0xbfe37bdc72feb839	-0.6088697668071809
77	0x3ff127b60d8b66d0	1.0721951035579202
78	0xbfe4a04664822184	-0.6445648158124162
79	0xbfdf060f5918a702	-0.4847448701935805
80	0x0000000000000000	0.0
81	0xbfefbd2729bf0978	-0.9918399634700981
82	0xbfd38b58ae29eb97	-0.305380029756344
83	0x3fe84b059eb485fd	0.7591579532347051
84	0xbfd514b113f19463	-0.3293879217874915
85	0xbfc3ca92e18c918f	-0.15461956036700683
86	0xbfc866121aa63111	-0.19061495114545626
87	0xbfcd2cfe863d6fa9	-0.22793561510741014
88	0x3fed755540d2c17c	0.9205728784636871
89	0xbfd355a7eda281ff	-0.30210302549861007
90	0xbfe5d74bdfb2cd08	-0.6825312966451813
91	0x3ff00e282dc6136f	1.0034562862431036
92	0x3fea126e3a566b00	0.8147498263745945
93	0x3fe84b059eb485fd	0.7591579532347051
94	0x3fb470a55b836347	0.07984384044847302
95	0x3fdabb39f21f155e	0.41767738957090284
96	0xbfbe0b0ed78e343a	-0.11735623133263653
97	0xbfd329714709d973	-0.2994044488654232
98	0x3fbb4eff2fa7bd1b	0.10667414582689043
99	0xbfe1f1886d19fe0c	-0.5607339983834563
100	0xbfd355a7eda281ff	-0.30210302549861007
101	0xbfde142b0c8b76e8	-0.4699809668071411
102	0x3fdabb39f21f155e	0.41767738957090284
103	0xbfe4e6399ea5c6f8	-0.6531036470971392
104	0xbfc09c4bfb7b8a82	-0.12976979998991928
105	0xbfd329714709d973	-0.2994044488654232
106	0xbfd5b57f2614cf28	-0.3392026779067572
107	0xbfe07c6844f1f817	-0.5151864382348802
108	0xbfeb281fbb251c29	-0.848647943036558
109	0x0000000000000000	0.0
110	0xbfebabf5a1979036	-0.8647411495298971
111	0xbfc3ca92e18c918f	-0.15461956036700683
112	0xbfc97cecb7fdba5a	-0.199124898757378
113	0xbfa40a9a19e25e7c	-0.03914338651628399
114	0x3ffc9f90c92bbefe	1.7889564378965015
115	0xbfee427ff8fad3ce	-0.9456176627050981
116	0xbfe1a4c4c3fa335e	-0.5513633563692613
117	0x3fd73d855371b32e	0.3631299319156821
118	0xbfde142b0c8b76e8	-0.4699809668071411
